[
    {
        "model_name": "UNetDeconv",
        "description": "UNetDeconv",
        "timestamp": "2024-10-26 15:35:07.199872",
        "model": "UNetDeconv(\n  (input_conv): Conv2d(3, 64, kernel_size=(3, 3), stride=(1, 1), padding=(1, 1))\n  (enc_conv0): Conv2d(64, 64, kernel_size=(3, 3), stride=(2, 2), padding=(1, 1))\n  (enc_conv1): Conv2d(64, 128, kernel_size=(3, 3), stride=(2, 2), padding=(1, 1))\n  (enc_conv2): Conv2d(128, 128, kernel_size=(3, 3), stride=(2, 2), padding=(1, 1))\n  (enc_conv3): Conv2d(128, 128, kernel_size=(3, 3), stride=(2, 2), padding=(1, 1))\n  (bottleneck_conv): Conv2d(128, 128, kernel_size=(3, 3), stride=(1, 1), padding=(1, 1))\n  (trans_conv0): ConvTranspose2d(128, 128, kernel_size=(2, 2), stride=(2, 2))\n  (dec_conv0): Conv2d(256, 128, kernel_size=(3, 3), stride=(1, 1), padding=(1, 1))\n  (trans_conv1): ConvTranspose2d(128, 128, kernel_size=(2, 2), stride=(2, 2))\n  (dec_conv1): Conv2d(256, 128, kernel_size=(3, 3), stride=(1, 1), padding=(1, 1))\n  (trans_conv2): ConvTranspose2d(128, 128, kernel_size=(2, 2), stride=(2, 2))\n  (dec_conv2): Conv2d(192, 128, kernel_size=(3, 3), stride=(1, 1), padding=(1, 1))\n  (trans_conv3): ConvTranspose2d(128, 64, kernel_size=(2, 2), stride=(2, 2))\n  (dec_conv3): Conv2d(128, 64, kernel_size=(3, 3), stride=(1, 1), padding=(1, 1))\n  (output_conv): Conv2d(64, 1, kernel_size=(1, 1), stride=(1, 1))\n)",
        "train_acc": [
            … "test_acc": [
            … "train_loss": [
            … "test_loss": [
            … "train_dice": [
            … "test_dice": [
            … "train_iou": [
            … "test_iou": [
            … "train_sensitivity": [
            … "test_sensitivity": [
            … "train_specificity": [
            … "test_specificity": [
…
            … "train_specificity": [
            … "test_specificity": [
            … "epochs": 200,
        "optimizer_config": {
            "optimizer": "<class 'torch.optim.adam.Adam'>",
            "params": {
                "lr": 0.001
            }
        },
        "criterion": "BFLWithLogits",
        "transform": "JointRandomTransforms(horizontal_p=0.5, vertical_p=0.5, rotation_degree=90, perspective_p=0, size=512)"
    },
    {
        "model_name": "UNetDilated",
        "description": "UNetDilated",
        "timestamp": "2024-10-26 16:06:21.363304",
        "model": "UNetDilated(\n  (enc_conv0): Conv2d(3, 64, kernel_size=(3, 3), stride=(1, 1), padding=(1, 1))\n  (enc_conv1): Conv2d(64, 64, kernel_size=(3, 3), stride=(1, 1), padding=(2, 2), dilation=(2, 2))\n  (enc_conv2): Conv2d(64, 64, kernel_size=(3, 3), stride=(1, 1), padding=(4, 4), dilation=(4, 4))\n  (enc_conv3): Conv2d(64, 64, kernel_size=(3, 3), stride=(1, 1), padding=(8, 8), dilation=(8, 8))\n  (enc_conv4): Conv2d(64, 64, kernel_size=(3, 3), stride=(1, 1), padding=(16, 16), dilation=(16, 16))\n  (bottleneck_conv): Conv2d(64, 64, kernel_size=(3, 3), stride=(1, 1), padding=(32, 32), dilation=(32, 32))\n  (dec_conv0): Conv2d(64, 64, kernel_size=(3, 3), stride=(1, 1), padding=(16, 16), dilation=(16, 16))\n  (dec_conv1): Conv2d(64, 64, kernel_size=(3, 3), stride=(1, 1), padding=(8, 8), dilation=(8, 8))\n  (dec_conv2): Conv2d(64, 64, kernel_size=(3, 3), stride=(1, 1), padding=(4, 4), dilation=(4, 4))\n  (dec_conv3): Conv2d(64, 64, kernel_size=(3, 3), stride=(1, 1), padding=(2, 2), dilation=(2, 2))\n  (dec_conv4): Conv2d(64, 1, kernel_size=(3, 3), stride=(1, 1), padding=(1, 1))\n)",
        "train_acc": [
            … "test_acc": [
            … "train_loss": [
            … "test_loss": [
            … "train_dice": [
            … "test_dice": [
            … "train_iou": [
            … "test_iou": [
            … "train_sensitivity": [
            … "test_sensitivity": [
            … "train_specificity": [
            … "test_specificity": [
…
