[
    {
        "model_name": "EncDec_dropout",
        "description": "EncDec_dropout",
        "timestamp": "2024-10-25 10:26:06.925335",
        "model": "EncDec_dropout(\n  (enc_conv0): Conv2d(3, 128, kernel_size=(3, 3), stride=(1, 1), padding=(1, 1))\n  (pool0): MaxPool2d(kernel_size=2, stride=2, padding=0, dilation=1, ceil_mode=False)\n  (enc_conv1): Conv2d(128, 128, kernel_size=(3, 3), stride=(1, 1), padding=(1, 1))\n  (pool1): MaxPool2d(kernel_size=2, stride=2, padding=0, dilation=1, ceil_mode=False)\n  (enc_conv2): Conv2d(128, 128, kernel_size=(3, 3), stride=(1, 1), padding=(1, 1))\n  (pool2): MaxPool2d(kernel_size=2, stride=2, padding=0, dilation=1, ceil_mode=False)\n  (enc_conv3): Conv2d(128, 128, kernel_size=(3, 3), stride=(1, 1), padding=(1, 1))\n  (pool3): MaxPool2d(kernel_size=2, stride=2, padding=0, dilation=1, ceil_mode=False)\n  (enc_conv4): Conv2d(128, 192, kernel_size=(3, 3), stride=(1, 1), padding=(1, 1))\n  (pool4): MaxPool2d(kernel_size=2, stride=2, padding=0, dilation=1, ceil_mode=False)\n  (bottleneck_conv): Conv2d(192, 192, kernel_size=(3, 3), stride=(1, 1), padding=(1, 1))\n  (upsample0): Upsample(scale_factor=2.0, mode='nearest')\n  (dec_conv0): Conv2d(192, 128, kernel_size=(3, 3), stride=(1, 1), padding=(1, 1))\n  (upsample1): Upsample(scale_factor=2.0, mode='nearest')\n  (dec_conv1): Conv2d(128, 128, kernel_size=(3, 3), stride=(1, 1), padding=(1, 1))\n  (upsample2): Upsample(scale_factor=2.0, mode='nearest')\n  (dec_conv2): Conv2d(128, 128, kernel_size=(3, 3), stride=(1, 1), padding=(1, 1))\n  (upsample3): Upsample(scale_factor=2.0, mode='nearest')\n  (dec_conv3): Conv2d(128, 128, kernel_size=(3, 3), stride=(1, 1), padding=(1, 1))\n  (upsample4): Upsample(scale_factor=2.0, mode='nearest')\n  (dec_conv4): Conv2d(128, 1, kernel_size=(3, 3), stride=(1, 1), padding=(1, 1))\n  (dropout): Dropout(p=0.5, inplace=False)\n)",
        "train_acc": [
            … "test_acc": [
            … "train_loss": [
            … "test_loss": [
            … "train_dice": [
            … "test_dice": [
            … "train_iou": [
            … "test_iou": [
            … "train_sensitivity": [
            … "test_sensitivity": [
            … "train_specificity": [
            … "test_specificity": [
            … "epochs": 100,
        "optimizer_config": {
            "optimizer": "<class 'torch.optim.adam.Adam'>",
            "params": {
                "lr": 0.001
            }
        },
        "criterion": "BCEWithLogitsLoss with pos_weight",
        "transform": "JointRandomTransforms(horizontal_p=0.5, vertical_p=0.5, rotation_degree=90, perspective_p=0, size=512)"
    },
    {
        "model_name": "EncDec_base",
        "description": "EncDec_base",
        "timestamp": "2024-10-25 09:39:06.006283",
        "model": "EncDec_base(\n  (enc_conv0): Conv2d(3, 128, kernel_size=(3, 3), stride=(1, 1), padding=(1, 1))\n  (pool0): MaxPool2d(kernel_size=2, stride=2, padding=0, dilation=1, ceil_mode=False)\n  (enc_conv1): Conv2d(128, 128, kernel_size=(3, 3), stride=(1, 1), padding=(1, 1))\n  (pool1): MaxPool2d(kernel_size=2, stride=2, padding=0, dilation=1, ceil_mode=False)\n  (enc_conv2): Conv2d(128, 128, kernel_size=(3, 3), stride=(1, 1), padding=(1, 1))\n  (pool2): MaxPool2d(kernel_size=2, stride=2, padding=0, dilation=1, ceil_mode=False)\n  (enc_conv3): Conv2d(128, 128, kernel_size=(3, 3), stride=(1, 1), padding=(1, 1))\n  (pool3): MaxPool2d(kernel_size=2, stride=2, padding=0, dilation=1, ceil_mode=False)\n  (enc_conv4): Conv2d(128, 192, kernel_size=(3, 3), stride=(1, 1), padding=(1, 1))\n  (pool4): MaxPool2d(kernel_size=2, stride=2, padding=0, dilation=1, ceil_mode=False)\n  (bottleneck_conv): Conv2d(192, 192, kernel_size=(3, 3), stride=(1, 1), padding=(1, 1))\n  (upsample0): Upsample(scale_factor=2.0, mode='nearest')\n  (dec_conv0): Conv2d(192, 128, kernel_size=(3, 3), stride=(1, 1), padding=(1, 1))\n  (upsample1): Upsample(scale_factor=2.0, mode='nearest')\n  (dec_conv1): Conv2d(128, 128, kernel_size=(3, 3), stride=(1, 1), padding=(1, 1))\n  (upsample2): Upsample(scale_factor=2.0, mode='nearest')\n  (dec_conv2): Conv2d(128, 128, kernel_size=(3, 3), stride=(1, 1), padding=(1, 1))\n  (upsample3): Upsample(scale_factor=2.0, mode='nearest')\n  (dec_conv3): Conv2d(128, 128, kernel_size=(3, 3), stride=(1, 1), padding=(1, 1))\n  (upsample4): Upsample(scale_factor=2.0, mode='nearest')\n  (dec_conv4): Conv2d(128, 1, kernel_size=(3, 3), stride=(1, 1), padding=(1, 1))\n)",
        "train_acc": [
            … "test_acc": [
            … "train_loss": [
            … "test_loss": [
            … "train_dice": [
            … "test_dice": [
            … "train_iou": [
            … "test_iou": [
            … "train_sensitivity": [
            … "test_sensitivity": [
            … "train_specificity": [
            … "test_specificity": [
            … "epochs": 100,
        "optimizer_config": {
            "optimizer": "<class 'torch.optim.adam.Adam'>",
            "params": {
                "lr": 0.001
            }
        },
        "criterion": "BCEWithLogitsLoss with pos_weight",
        "transform": "JointRandomTransforms(horizontal_p=0.5, vertical_p=0.5, rotation_degree=90, perspective_p=0, size=512)"
    },
    {
        "model_name": "EncDecStride",
        "description": "EncDecStride",
        "timestamp": "2024-10-25 09:42:55.313011",
        "model": "EncDecStride(\n  (enc_conv0): Conv2d(3, 128, kernel_size=(3, 3), stride=(2, 2), padding=(1, 1))\n  (enc_conv1): Conv2d(128, 128, kernel_size=(3, 3), stride=(2, 2), padding=(1, 1))\n  (enc_conv2): Conv2d(128, 128, kernel_size=(3, 3), stride=(2, 2), padding=(1, 1))\n  (enc_conv3): Conv2d(128, 128, kernel_size=(3, 3), stride=(2, 2), padding=(1, 1))\n  (enc_conv4): Conv2d(128, 192, kernel_size=(3, 3), stride=(2, 2), padding=(1, 1))\n  (bottleneck_conv): Conv2d(192, 192, kernel_size=(3, 3), stride=(1, 1), padding=(1, 1))\n  (dec_conv0): ConvTranspose2d(192, 128, kernel_size=(3, 3), stride=(2, 2), padding=(1, 1), output_padding=(1, 1))\n  (dec_conv1): ConvTranspose2d(128, 128, kernel_size=(3, 3), stride=(2, 2), padding=(1, 1), output_padding=(1, 1))\n  (dec_conv2): ConvTranspose2d(128, 128, kernel_size=(3, 3), stride=(2, 2), padding=(1, 1), output_padding=(1, 1))\n  (dec_conv3): ConvTranspose2d(128, 128, kernel_size=(3, 3), stride=(2, 2), padding=(1, 1), output_padding=(1, 1))\n  (dec_conv4): ConvTranspose2d(128, 1, kernel_size=(3, 3), stride=(2, 2), padding=(1, 1), output_padding=(1, 1))\n)",
        "train_acc": [
            … "test_acc": [
            … "train_loss": [
            … "test_loss": [
            … "train_dice": [
            … "test_dice": [
            … "train_iou": [
            … "test_iou": [
            … "train_sensitivity": [
            … "test_sensitivity": [
            … "train_specificity": [
…
            … "train_specificity": [
            … "test_specificity": [
            … "epochs": 100,
        "optimizer_config": {
            "optimizer": "<class 'torch.optim.adam.Adam'>",
            "params": {
                "lr": 0.001
            }
        },
        "criterion": "BCEWithLogitsLoss",
        "transform": "JointRandomTransforms(horizontal_p=0.5, vertical_p=0.5, rotation_degree=90, perspective_p=0, size=512)"
    },
    {
        "model_name": "DilatedConvNet",
        "description": "DilatedConvNet",
        "timestamp": "2024-10-25 12:17:38.329646",
        "model": "DilatedConvNet(\n  (dilated_conv0): Conv2d(3, 128, kernel_size=(3, 3), stride=(1, 1), padding=(1, 1))\n  (dilated_conv1): Conv2d(128, 128, kernel_size=(3, 3), stride=(1, 1), padding=(2, 2), dilation=(2, 2))\n  (dilated_conv2): Conv2d(128, 192, kernel_size=(3, 3), stride=(1, 1), padding=(4, 4), dilation=(4, 4))\n  (dilated_conv3): Conv2d(192, 128, kernel_size=(3, 3), stride=(1, 1), padding=(8, 8), dilation=(8, 8))\n  (dilated_conv4): Conv2d(128, 128, kernel_size=(3, 3), stride=(1, 1), padding=(16, 16), dilation=(16, 16))\n  (dilated_conv5): Conv2d(128, 1, kernel_size=(3, 3), stride=(1, 1), padding=(1, 1))\n)",
        "train_acc": [
            … "test_acc": [
            … "train_loss": [
            … "test_loss": [
            … "train_dice": [
            … "test_dice": [
            … "train_iou": [
            … "test_iou": [
            … "train_sensitivity": [
            … "test_sensitivity": [
            … "train_specificity": [
            … "test_specificity": [
…
