[
    {
        "model_name": "EncDec_base",
        "description": "EncDec_base",
        "timestamp": "2024-10-21 00:51:51.410319",
        "model": "EncDec_base(\n  (enc_conv0): Conv2d(3, 256, kernel_size=(3, 3), stride=(1, 1), padding=(1, 1))\n  (pool0): MaxPool2d(kernel_size=2, stride=2, padding=0, dilation=1, ceil_mode=False)\n  (enc_conv1): Conv2d(256, 512, kernel_size=(3, 3), stride=(1, 1), padding=(1, 1))\n  (pool1): MaxPool2d(kernel_size=2, stride=2, padding=0, dilation=1, ceil_mode=False)\n  (enc_conv2): Conv2d(512, 512, kernel_size=(3, 3), stride=(1, 1), padding=(1, 1))\n  (pool2): MaxPool2d(kernel_size=2, stride=2, padding=0, dilation=1, ceil_mode=False)\n  (enc_conv3): Conv2d(512, 512, kernel_size=(3, 3), stride=(1, 1), padding=(1, 1))\n  (pool3): MaxPool2d(kernel_size=2, stride=2, padding=0, dilation=1, ceil_mode=False)\n  (bottleneck_conv): Conv2d(512, 512, kernel_size=(3, 3), stride=(1, 1), padding=(1, 1))\n  (upsample0): Upsample(scale_factor=2.0, mode='nearest')\n  (dec_conv0): Conv2d(512, 512, kernel_size=(3, 3), stride=(1, 1), padding=(1, 1))\n  (upsample1): Upsample(scale_factor=2.0, mode='nearest')\n  (dec_conv1): Conv2d(512, 512, kernel_size=(3, 3), stride=(1, 1), padding=(1, 1))\n  (upsample2): Upsample(scale_factor=2.0, mode='nearest')\n  (dec_conv2): Conv2d(512, 256, kernel_size=(3, 3), stride=(1, 1), padding=(1, 1))\n  (upsample3): Upsample(scale_factor=2.0, mode='nearest')\n  (dec_conv3): Conv2d(256, 1, kernel_size=(3, 3), stride=(1, 1), padding=(1, 1))\n)",
        "train_acc": [
            0.716168212890625,
            0.716168212890625,
            0.716168212890625,
            0.716168212890625,
            0.716168212890625,
            0.740505599975586,
            0.9023870468139649,
            0.9155337333679199,
            0.9250215530395508,
            0.9217854499816894
        ],
…
            0.9876256386439005,
            0.9954384366671244,
            0.9645244677861532
        ],
        "epochs": 10,
        "optimizer_config": {
            "optimizer": "<class 'torch.optim.adam.Adam'>",
            "params": {
                "lr": 0.0001,
                "weight_decay": 0.0001
            }
        },
        "criterion": "BCEWithLogitsLoss",
        "transform": "JointBaseTransform()"
    },
    {
        "model_name": "EncDecStride",
        "description": "EncDecStride",
        "timestamp": "2024-10-21 01:16:27.625630",
        "model": "EncDecStride(\n  (enc_conv0): Conv2d(3, 1024, kernel_size=(3, 3), stride=(2, 2), padding=(1, 1))\n  (enc_conv1): Conv2d(1024, 1024, kernel_size=(3, 3), stride=(2, 2), padding=(1, 1))\n  (enc_conv2): Conv2d(1024, 1024, kernel_size=(3, 3), stride=(2, 2), padding=(1, 1))\n  (enc_conv3): Conv2d(1024, 1024, kernel_size=(3, 3), stride=(2, 2), padding=(1, 1))\n  (enc_conv4): Conv2d(1024, 1024, kernel_size=(3, 3), stride=(2, 2), padding=(1, 1))\n  (bottleneck_conv): Conv2d(1024, 1024, kernel_size=(3, 3), stride=(1, 1), padding=(1, 1))\n  (dec_conv0): ConvTranspose2d(1024, 1024, kernel_size=(3, 3), stride=(2, 2), padding=(1, 1), output_padding=(1, 1))\n  (dec_conv1): ConvTranspose2d(1024, 1024, kernel_size=(3, 3), stride=(2, 2), padding=(1, 1), output_padding=(1, 1))\n  (dec_conv2): ConvTranspose2d(1024, 1024, kernel_size=(3, 3), stride=(2, 2), padding=(1, 1), output_padding=(1, 1))\n  (dec_conv3): ConvTranspose2d(1024, 1024, kernel_size=(3, 3), stride=(2, 2), padding=(1, 1), output_padding=(1, 1))\n  (dec_conv4): ConvTranspose2d(1024, 1, kernel_size=(3, 3), stride=(2, 2), padding=(1, 1), output_padding=(1, 1))\n)",
        "train_acc": [
            0.716168212890625,
            0.716168212890625,
            0.716168212890625,
            0.716168212890625,
            0.7170188903808594,
            0.8466666221618653,
            0.9088980674743652,
            0.9120086669921875,
            0.9180431365966797,
            0.9259721755981445
…
            0.9533742666244507,
            0.992902676264445,
            0.9980430006980896,
            0.9920545220375061,
            0.9856583873430887
        ],
        "epochs": 10,
        "optimizer_config": {
            "optimizer": "<class 'torch.optim.adam.Adam'>",
            "params": {
                "lr": 0.0001
            }
        },
        "criterion": "BCEWithLogitsLoss",
        "transform": "JointBaseTransform()"
    },
    {
        "model_name": "EncDec",
        "description": "EncDec",
        "timestamp": "2024-10-21 00:03:53.306888",
        "model": "EncDec(\n  (enc_conv0): Conv2d(3, 256, kernel_size=(3, 3), stride=(1, 1), padding=(1, 1))\n  (pool0): MaxPool2d(kernel_size=2, stride=2, padding=0, dilation=1, ceil_mode=False)\n  (enc_conv1): Conv2d(256, 256, kernel_size=(3, 3), stride=(1, 1), padding=(1, 1))\n  (pool1): MaxPool2d(kernel_size=2, stride=2, padding=0, dilation=1, ceil_mode=False)\n  (enc_conv2): Conv2d(256, 256, kernel_size=(3, 3), stride=(1, 1), padding=(1, 1))\n  (pool2): MaxPool2d(kernel_size=2, stride=2, padding=0, dilation=1, ceil_mode=False)\n  (enc_conv3): Conv2d(256, 256, kernel_size=(3, 3), stride=(1, 1), padding=(1, 1))\n  (pool3): MaxPool2d(kernel_size=2, stride=2, padding=0, dilation=1, ceil_mode=False)\n  (bottleneck_conv): Conv2d(256, 256, kernel_size=(3, 3), stride=(1, 1), padding=(1, 1))\n  (upsample0): Upsample(size=32, mode='nearest')\n  (dec_conv0): Conv2d(256, 256, kernel_size=(3, 3), stride=(1, 1), padding=(1, 1))\n  (upsample1): Upsample(size=64, mode='nearest')\n  (dec_conv1): Conv2d(256, 256, kernel_size=(3, 3), stride=(1, 1), padding=(1, 1))\n  (upsample2): Upsample(size=128, mode='nearest')\n  (dec_conv2): Conv2d(256, 256, kernel_size=(3, 3), stride=(1, 1), padding=(1, 1))\n  (upsample3): Upsample(size=256, mode='nearest')\n  (dec_conv3): Conv2d(256, 1, kernel_size=(3, 3), stride=(1, 1), padding=(1, 1))\n)",
        "train_acc": [
            0.716168212890625,
            0.716168212890625,
            0.716168212890625,
            0.716168212890625,
            0.716168212890625,
            0.716168212890625,
            0.716168212890625,
            0.761359977722168,
            0.9062459945678711,
            0.9025364875793457
        ],
…
            1.0,
            1.0,
            1.0,
            0.9574816226959229,
            0.9559072454770406,
            0.9761566122372946
        ],
        "epochs": 10,
        "optimizer_config": {
            "optimizer": "<class 'torch.optim.adam.Adam'>",
            "params": {
                "lr": 0.0001
            }
        },
        "criterion": "BCEWithLogitsLoss",
        "transform": "JointBaseTransform()"
    },
    {
        "model_name": "EncDec",
        "description": "EncDec",
        "timestamp": "2024-10-21 00:11:06.030023",
        "model": "EncDec(\n  (enc_conv0): Conv2d(3, 128, kernel_size=(3, 3), stride=(1, 1), padding=(1, 1))\n  (pool0): MaxPool2d(kernel_size=2, stride=2, padding=0, dilation=1, ceil_mode=False)\n  (enc_conv1): Conv2d(128, 256, kernel_size=(3, 3), stride=(1, 1), padding=(1, 1))\n  (pool1): MaxPool2d(kernel_size=2, stride=2, padding=0, dilation=1, ceil_mode=False)\n  (enc_conv2): Conv2d(256, 512, kernel_size=(3, 3), stride=(1, 1), padding=(1, 1))\n  (pool2): MaxPool2d(kernel_size=2, stride=2, padding=0, dilation=1, ceil_mode=False)\n  (enc_conv3): Conv2d(512, 512, kernel_size=(3, 3), stride=(1, 1), padding=(1, 1))\n  (pool3): MaxPool2d(kernel_size=2, stride=2, padding=0, dilation=1, ceil_mode=False)\n  (bottleneck_conv): Conv2d(512, 512, kernel_size=(3, 3), stride=(1, 1), padding=(1, 1))\n  (upsample0): Upsample(scale_factor=2.0, mode='nearest')\n  (dec_conv0): Conv2d(512, 512, kernel_size=(3, 3), stride=(1, 1), padding=(1, 1))\n  (upsample1): Upsample(scale_factor=2.0, mode='nearest')\n  (dec_conv1): Conv2d(512, 256, kernel_size=(3, 3), stride=(1, 1), padding=(1, 1))\n  (upsample2): Upsample(scale_factor=2.0, mode='nearest')\n  (dec_conv2): Conv2d(256, 128, kernel_size=(3, 3), stride=(1, 1), padding=(1, 1))\n  (upsample3): Upsample(scale_factor=2.0, mode='nearest')\n  (dec_conv3): Conv2d(128, 1, kernel_size=(3, 3), stride=(1, 1), padding=(1, 1))\n)",
        "train_acc": [
            0.716168212890625,
            0.716168212890625,
            0.716168212890625,
            0.716168212890625,
            0.716168212890625,
            0.716168212890625,
            0.8575735092163086,
            0.8595882415771484,
            0.9143925666809082,
            0.9129683494567871
        ],
…
            0.9291898409525553,
            0.9822373787562052,
            0.9752721985181173,
            0.9875058730443319
        ],
        "epochs": 10,
        "optimizer_config": {
            "optimizer": "<class 'torch.optim.adam.Adam'>",
            "params": {
                "lr": 0.0001
            }
        },
        "criterion": "BCEWithLogitsLoss",
        "transform": "JointBaseTransform()"
    },
    {
        "model_name": "EncDec_dropout",
        "description": "EncDec_dropout",
        "timestamp": "2024-10-21 01:01:11.442083",
        "model": "EncDec_dropout(\n  (enc_conv0): Conv2d(3, 256, kernel_size=(3, 3), stride=(1, 1), padding=(1, 1))\n  (pool0): MaxPool2d(kernel_size=2, stride=2, padding=0, dilation=1, ceil_mode=False)\n  (enc_conv1): Conv2d(256, 512, kernel_size=(3, 3), stride=(1, 1), padding=(1, 1))\n  (pool1): MaxPool2d(kernel_size=2, stride=2, padding=0, dilation=1, ceil_mode=False)\n  (enc_conv2): Conv2d(512, 512, kernel_size=(3, 3), stride=(1, 1), padding=(1, 1))\n  (pool2): MaxPool2d(kernel_size=2, stride=2, padding=0, dilation=1, ceil_mode=False)\n  (enc_conv3): Conv2d(512, 512, kernel_size=(3, 3), stride=(1, 1), padding=(1, 1))\n  (pool3): MaxPool2d(kernel_size=2, stride=2, padding=0, dilation=1, ceil_mode=False)\n  (bottleneck_conv): Conv2d(512, 512, kernel_size=(3, 3), stride=(1, 1), padding=(1, 1))\n  (upsample0): Upsample(scale_factor=2.0, mode='nearest')\n  (dec_conv0): Conv2d(512, 512, kernel_size=(3, 3), stride=(1, 1), padding=(1, 1))\n  (upsample1): Upsample(scale_factor=2.0, mode='nearest')\n  (dec_conv1): Conv2d(512, 512, kernel_size=(3, 3), stride=(1, 1), padding=(1, 1))\n  (upsample2): Upsample(scale_factor=2.0, mode='nearest')\n  (dec_conv2): Conv2d(512, 256, kernel_size=(3, 3), stride=(1, 1), padding=(1, 1))\n  (upsample3): Upsample(scale_factor=2.0, mode='nearest')\n  (dec_conv3): Conv2d(256, 1, kernel_size=(3, 3), stride=(1, 1), padding=(1, 1))\n  (dropout): Dropout(p=0.2, inplace=False)\n)",
        "train_acc": [
            0.716168212890625,
            0.716168212890625,
            0.716168212890625,
            0.716168212890625,
            0.716168212890625,
            0.716168212890625,
            0.716168212890625,
            0.814388370513916,
            0.9038958549499512,
…
            1.0,
            1.0,
            1.0,
            0.9618732333183289,
            0.9946773449579874,
            0.9841620922088623
        ],
        "epochs": 10,
        "optimizer_config": {
            "optimizer": "<class 'torch.optim.adam.Adam'>",
            "params": {
                "lr": 0.0001
            }
        },
        "criterion": "BCEWithLogitsLoss",
        "transform": "JointBaseTransform()"
    },
    {
        "model_name": "EncDec",
        "description": "EncDec",
        "timestamp": "2024-10-21 00:12:02.678058",
        "model": "EncDec(\n  (enc_conv0): Conv2d(3, 256, kernel_size=(3, 3), stride=(1, 1), padding=(1, 1))\n  (pool0): MaxPool2d(kernel_size=2, stride=2, padding=0, dilation=1, ceil_mode=False)\n  (enc_conv1): Conv2d(256, 256, kernel_size=(3, 3), stride=(1, 1), padding=(1, 1))\n  (pool1): MaxPool2d(kernel_size=2, stride=2, padding=0, dilation=1, ceil_mode=False)\n  (enc_conv2): Conv2d(256, 512, kernel_size=(3, 3), stride=(1, 1), padding=(1, 1))\n  (pool2): MaxPool2d(kernel_size=2, stride=2, padding=0, dilation=1, ceil_mode=False)\n  (enc_conv3): Conv2d(512, 512, kernel_size=(3, 3), stride=(1, 1), padding=(1, 1))\n  (pool3): MaxPool2d(kernel_size=2, stride=2, padding=0, dilation=1, ceil_mode=False)\n  (bottleneck_conv): Conv2d(512, 512, kernel_size=(3, 3), stride=(1, 1), padding=(1, 1))\n  (upsample0): Upsample(scale_factor=2.0, mode='nearest')\n  (dec_conv0): Conv2d(512, 512, kernel_size=(3, 3), stride=(1, 1), padding=(1, 1))\n  (upsample1): Upsample(scale_factor=2.0, mode='nearest')\n  (dec_conv1): Conv2d(512, 256, kernel_size=(3, 3), stride=(1, 1), padding=(1, 1))\n  (upsample2): Upsample(scale_factor=2.0, mode='nearest')\n  (dec_conv2): Conv2d(256, 256, kernel_size=(3, 3), stride=(1, 1), padding=(1, 1))\n  (upsample3): Upsample(scale_factor=2.0, mode='nearest')\n  (dec_conv3): Conv2d(256, 1, kernel_size=(3, 3), stride=(1, 1), padding=(1, 1))\n)",
        "train_acc": [
            0.716168212890625,
            0.716168212890625,
            0.716168212890625,
            0.716168212890625,
            0.716168212890625,
            0.716168212890625,
            0.7406281471252442,
            0.8991460800170898,
            0.8903820037841796,
            0.9142002105712891
        ],
…
            0.951062003771464,
            0.9965469638506571,
            0.9930821458498637,
            0.982140858968099,
            0.9976806243260702
        ],
        "epochs": 10,
        "optimizer_config": {
            "optimizer": "<class 'torch.optim.adam.Adam'>",
            "params": {
                "lr": 0.0001
            }
        },
        "criterion": "BCEWithLogitsLoss",
        "transform": "JointBaseTransform()"
    },
    {
        "model_name": "EncDec",
        "description": "EncDec",
        "timestamp": "2024-10-21 00:09:33.330579",
        "model": "EncDec(\n  (enc_conv0): Conv2d(3, 64, kernel_size=(3, 3), stride=(1, 1), padding=(1, 1))\n  (pool0): MaxPool2d(kernel_size=2, stride=2, padding=0, dilation=1, ceil_mode=False)\n  (enc_conv1): Conv2d(64, 128, kernel_size=(3, 3), stride=(1, 1), padding=(1, 1))\n  (pool1): MaxPool2d(kernel_size=2, stride=2, padding=0, dilation=1, ceil_mode=False)\n  (enc_conv2): Conv2d(128, 256, kernel_size=(3, 3), stride=(1, 1), padding=(1, 1))\n  (pool2): MaxPool2d(kernel_size=2, stride=2, padding=0, dilation=1, ceil_mode=False)\n  (enc_conv3): Conv2d(256, 512, kernel_size=(3, 3), stride=(1, 1), padding=(1, 1))\n  (pool3): MaxPool2d(kernel_size=2, stride=2, padding=0, dilation=1, ceil_mode=False)\n  (bottleneck_conv): Conv2d(512, 512, kernel_size=(3, 3), stride=(1, 1), padding=(1, 1))\n  (upsample0): Upsample(scale_factor=2.0, mode='nearest')\n  (dec_conv0): Conv2d(512, 256, kernel_size=(3, 3), stride=(1, 1), padding=(1, 1))\n  (upsample1): Upsample(scale_factor=2.0, mode='nearest')\n  (dec_conv1): Conv2d(256, 128, kernel_size=(3, 3), stride=(1, 1), padding=(1, 1))\n  (upsample2): Upsample(scale_factor=2.0, mode='nearest')\n  (dec_conv2): Conv2d(128, 64, kernel_size=(3, 3), stride=(1, 1), padding=(1, 1))\n  (upsample3): Upsample(scale_factor=2.0, mode='nearest')\n  (dec_conv3): Conv2d(64, 1, kernel_size=(3, 3), stride=(1, 1), padding=(1, 1))\n)",
        "train_acc": [
            0.716168212890625,
            0.716168212890625,
            0.716168212890625,
            0.716168212890625,
            0.716168212890625,
            0.716168212890625,
            0.716168212890625,
            0.8022252082824707,
            0.893959903717041,
            0.8991084098815918
        ],
…
            1.0,
            1.0,
            0.9931766192118326,
            0.9962831536928812,
            0.9919660290082296
        ],
        "epochs": 10,
        "optimizer_config": {
            "optimizer": "<class 'torch.optim.adam.Adam'>",
            "params": {
                "lr": 0.0001
            }
        },
        "criterion": "BCEWithLogitsLoss",
        "transform": "JointBaseTransform()"
    },
    {
        "model_name": "EncDecStride",
        "description": "EncDecStride",
        "timestamp": "2024-10-21 01:17:38.801221",
        "model": "EncDecStride(\n  (enc_conv0): Conv2d(3, 1024, kernel_size=(3, 3), stride=(2, 2), padding=(1, 1))\n  (enc_conv1): Conv2d(1024, 1024, kernel_size=(3, 3), stride=(2, 2), padding=(1, 1))\n  (enc_conv2): Conv2d(1024, 1024, kernel_size=(3, 3), stride=(2, 2), padding=(1, 1))\n  (enc_conv3): Conv2d(1024, 2048, kernel_size=(3, 3), stride=(2, 2), padding=(1, 1))\n  (enc_conv4): Conv2d(2048, 2048, kernel_size=(3, 3), stride=(2, 2), padding=(1, 1))\n  (bottleneck_conv): Conv2d(2048, 2048, kernel_size=(3, 3), stride=(1, 1), padding=(1, 1))\n  (dec_conv0): ConvTranspose2d(2048, 2048, kernel_size=(3, 3), stride=(2, 2), padding=(1, 1), output_padding=(1, 1))\n  (dec_conv1): ConvTranspose2d(2048, 1024, kernel_size=(3, 3), stride=(2, 2), padding=(1, 1), output_padding=(1, 1))\n  (dec_conv2): ConvTranspose2d(1024, 1024, kernel_size=(3, 3), stride=(2, 2), padding=(1, 1), output_padding=(1, 1))\n  (dec_conv3): ConvTranspose2d(1024, 1024, kernel_size=(3, 3), stride=(2, 2), padding=(1, 1), output_padding=(1, 1))\n  (dec_conv4): ConvTranspose2d(1024, 1, kernel_size=(3, 3), stride=(2, 2), padding=(1, 1), output_padding=(1, 1))\n)",
        "train_acc": [
            0.716168212890625,
            0.716168212890625,
            0.716168212890625,
            0.716168212890625,
            0.717292594909668,
            0.8570894241333008,
            0.8965239524841309,
            0.9167391777038574,
            0.9087186813354492,
            0.9094810485839844
…
            0.9214248657226562,
            0.9229771494865417,
            0.9597206314404806
        ],
        "epochs": 10,
        "optimizer_config": {
            "optimizer": "<class 'torch.optim.adam.Adam'>",
            "params": {
                "lr": 0.0001,
                "weight_decay": 0.01
            }
        },
        "criterion": "BCEWithLogitsLoss",
        "transform": "JointBaseTransform()"
    },
    {
        "model_name": "EncDec_dropout",
        "description": "EncDec_dropout",
        "timestamp": "2024-10-21 01:05:39.902459",
        "model": "EncDec_dropout(\n  (enc_conv0): Conv2d(3, 256, kernel_size=(3, 3), stride=(1, 1), padding=(1, 1))\n  (pool0): MaxPool2d(kernel_size=2, stride=2, padding=0, dilation=1, ceil_mode=False)\n  (enc_conv1): Conv2d(256, 512, kernel_size=(3, 3), stride=(1, 1), padding=(1, 1))\n  (pool1): MaxPool2d(kernel_size=2, stride=2, padding=0, dilation=1, ceil_mode=False)\n  (enc_conv2): Conv2d(512, 512, kernel_size=(3, 3), stride=(1, 1), padding=(1, 1))\n  (pool2): MaxPool2d(kernel_size=2, stride=2, padding=0, dilation=1, ceil_mode=False)\n  (enc_conv3): Conv2d(512, 512, kernel_size=(3, 3), stride=(1, 1), padding=(1, 1))\n  (pool3): MaxPool2d(kernel_size=2, stride=2, padding=0, dilation=1, ceil_mode=False)\n  (bottleneck_conv): Conv2d(512, 512, kernel_size=(3, 3), stride=(1, 1), padding=(1, 1))\n  (upsample0): Upsample(scale_factor=2.0, mode='nearest')\n  (dec_conv0): Conv2d(512, 512, kernel_size=(3, 3), stride=(1, 1), padding=(1, 1))\n  (upsample1): Upsample(scale_factor=2.0, mode='nearest')\n  (dec_conv1): Conv2d(512, 512, kernel_size=(3, 3), stride=(1, 1), padding=(1, 1))\n  (upsample2): Upsample(scale_factor=2.0, mode='nearest')\n  (dec_conv2): Conv2d(512, 256, kernel_size=(3, 3), stride=(1, 1), padding=(1, 1))\n  (upsample3): Upsample(scale_factor=2.0, mode='nearest')\n  (dec_conv3): Conv2d(256, 1, kernel_size=(3, 3), stride=(1, 1), padding=(1, 1))\n  (dropout): Dropout(p=0.5, inplace=False)\n)",
        "train_acc": [
            0.716168212890625,
            0.716168212890625,
            0.716168212890625,
            0.716168212890625,
            0.716168212890625,
            0.716168212890625,
            0.7170254707336425,
            0.8682375907897949,
            0.8892410278320313,
…
            1.0,
            1.0,
            0.9735105633735657,
            0.9636075099309286,
            0.9989425937334696
        ],
        "epochs": 10,
        "optimizer_config": {
            "optimizer": "<class 'torch.optim.adam.Adam'>",
            "params": {
                "lr": 0.0001
            }
        },
        "criterion": "BCEWithLogitsLoss",
        "transform": "JointBaseTransform()"
    },
    {
        "model_name": "EncDecStride",
        "description": "EncDecStride",
        "timestamp": "2024-10-21 01:09:31.838174",
        "model": "EncDecStride(\n  (enc_conv0): Conv2d(3, 256, kernel_size=(3, 3), stride=(2, 2), padding=(1, 1))\n  (enc_conv1): Conv2d(256, 512, kernel_size=(3, 3), stride=(2, 2), padding=(1, 1))\n  (enc_conv2): Conv2d(512, 512, kernel_size=(3, 3), stride=(2, 2), padding=(1, 1))\n  (enc_conv3): Conv2d(512, 512, kernel_size=(3, 3), stride=(2, 2), padding=(1, 1))\n  (bottleneck_conv): Conv2d(512, 512, kernel_size=(3, 3), stride=(1, 1), padding=(1, 1))\n  (dec_conv0): ConvTranspose2d(512, 512, kernel_size=(3, 3), stride=(2, 2), padding=(1, 1), output_padding=(1, 1))\n  (dec_conv1): ConvTranspose2d(512, 512, kernel_size=(3, 3), stride=(2, 2), padding=(1, 1), output_padding=(1, 1))\n  (dec_conv2): ConvTranspose2d(512, 256, kernel_size=(3, 3), stride=(2, 2), padding=(1, 1), output_padding=(1, 1))\n  (dec_conv3): ConvTranspose2d(256, 1, kernel_size=(3, 3), stride=(2, 2), padding=(1, 1), output_padding=(1, 1))\n)",
        "train_acc": [
            0.716168212890625,
            0.716168212890625,
            0.716168212890625,
            0.716168212890625,
            0.716168212890625,
            0.716168212890625,
            0.716168212890625,
            0.716168212890625,
            0.7161717414855957,
            0.7647924423217773
…
            1.0,
            1.0,
            1.0,
            1.0,
            0.9999999403953552,
            0.9982755780220032
        ],
        "epochs": 10,
        "optimizer_config": {
            "optimizer": "<class 'torch.optim.adam.Adam'>",
            "params": {
                "lr": 0.0001
            }
        },
        "criterion": "BCEWithLogitsLoss",
        "transform": "JointBaseTransform()"
    },
    {
        "model_name": "EncDecStride",
        "description": "EncDecStride",
        "timestamp": "2024-10-21 01:12:10.034904",
        "model": "EncDecStride(\n  (enc_conv0): Conv2d(3, 512, kernel_size=(3, 3), stride=(2, 2), padding=(1, 1))\n  (enc_conv1): Conv2d(512, 512, kernel_size=(3, 3), stride=(2, 2), padding=(1, 1))\n  (enc_conv2): Conv2d(512, 512, kernel_size=(3, 3), stride=(2, 2), padding=(1, 1))\n  (enc_conv3): Conv2d(512, 512, kernel_size=(3, 3), stride=(2, 2), padding=(1, 1))\n  (bottleneck_conv): Conv2d(512, 512, kernel_size=(3, 3), stride=(1, 1), padding=(1, 1))\n  (dec_conv0): ConvTranspose2d(512, 512, kernel_size=(3, 3), stride=(2, 2), padding=(1, 1), output_padding=(1, 1))\n  (dec_conv1): ConvTranspose2d(512, 512, kernel_size=(3, 3), stride=(2, 2), padding=(1, 1), output_padding=(1, 1))\n  (dec_conv2): ConvTranspose2d(512, 512, kernel_size=(3, 3), stride=(2, 2), padding=(1, 1), output_padding=(1, 1))\n  (dec_conv3): ConvTranspose2d(512, 1, kernel_size=(3, 3), stride=(2, 2), padding=(1, 1), output_padding=(1, 1))\n)",
        "train_acc": [
            0.716168212890625,
            0.716168212890625,
            0.716168212890625,
            0.716168212890625,
            0.716168212890625,
            0.716168212890625,
            0.716168212890625,
            0.716168212890625,
            0.7173604965209961,
            0.7527371406555176
…
            1.0,
            1.0,
            1.0,
            1.0,
            0.9999999602635702,
            0.9982752203941345
        ],
        "epochs": 10,
        "optimizer_config": {
            "optimizer": "<class 'torch.optim.adam.Adam'>",
            "params": {
                "lr": 0.0001
            }
        },
        "criterion": "BCEWithLogitsLoss",
        "transform": "JointBaseTransform()"
    },
    {
        "model_name": "EncDecStride",
        "description": "EncDecStride",
        "timestamp": "2024-10-21 01:14:25.703580",
        "model": "EncDecStride(\n  (enc_conv0): Conv2d(3, 256, kernel_size=(3, 3), stride=(2, 2), padding=(1, 1))\n  (enc_conv1): Conv2d(256, 256, kernel_size=(3, 3), stride=(2, 2), padding=(1, 1))\n  (enc_conv2): Conv2d(256, 512, kernel_size=(3, 3), stride=(2, 2), padding=(1, 1))\n  (enc_conv3): Conv2d(512, 512, kernel_size=(3, 3), stride=(2, 2), padding=(1, 1))\n  (enc_conv4): Conv2d(512, 512, kernel_size=(3, 3), stride=(2, 2), padding=(1, 1))\n  (bottleneck_conv): Conv2d(512, 512, kernel_size=(3, 3), stride=(1, 1), padding=(1, 1))\n  (dec_conv0): ConvTranspose2d(512, 512, kernel_size=(3, 3), stride=(2, 2), padding=(1, 1), output_padding=(1, 1))\n  (dec_conv1): ConvTranspose2d(512, 512, kernel_size=(3, 3), stride=(2, 2), padding=(1, 1), output_padding=(1, 1))\n  (dec_conv2): ConvTranspose2d(512, 256, kernel_size=(3, 3), stride=(2, 2), padding=(1, 1), output_padding=(1, 1))\n  (dec_conv3): ConvTranspose2d(256, 256, kernel_size=(3, 3), stride=(2, 2), padding=(1, 1), output_padding=(1, 1))\n  (dec_conv4): ConvTranspose2d(256, 1, kernel_size=(3, 3), stride=(2, 2), padding=(1, 1), output_padding=(1, 1))\n)",
        "train_acc": [
            0.716168212890625,
            0.716168212890625,
            0.716168212890625,
            0.716168212890625,
            0.716168212890625,
            0.716168212890625,
            0.716168212890625,
            0.716168212890625,
            0.716168212890625,
            0.716168212890625
…
            1.0,
            1.0
        ],
        "test_specificity": [
            1.0,
            1.0
        ],
        "epochs": 2,
        "optimizer_config": {
            "optimizer": "<class 'torch.optim.adam.Adam'>",
            "params": {
                "lr": 0.0001,
                "weight_decay": 1e-05
            }
        },
        "criterion": "BCEWithLogitsLoss",
        "transform": "JointBaseTransform()"
    },
    {
        "model_name": "EncDec",
        "description": "EncDec",
        "timestamp": "2024-10-20 23:45:10.979786",
        "model": "EncDec(\n  (enc_conv0): Conv2d(3, 64, kernel_size=(3, 3), stride=(1, 1), padding=(1, 1))\n  (pool0): MaxPool2d(kernel_size=2, stride=2, padding=0, dilation=1, ceil_mode=False)\n  (enc_conv1): Conv2d(64, 64, kernel_size=(3, 3), stride=(1, 1), padding=(1, 1))\n  (pool1): MaxPool2d(kernel_size=2, stride=2, padding=0, dilation=1, ceil_mode=False)\n  (enc_conv2): Conv2d(64, 64, kernel_size=(3, 3), stride=(1, 1), padding=(1, 1))\n  (pool2): MaxPool2d(kernel_size=2, stride=2, padding=0, dilation=1, ceil_mode=False)\n  (enc_conv3): Conv2d(64, 64, kernel_size=(3, 3), stride=(1, 1), padding=(1, 1))\n  (pool3): MaxPool2d(kernel_size=2, stride=2, padding=0, dilation=1, ceil_mode=False)\n  (bottleneck_conv): Conv2d(64, 64, kernel_size=(3, 3), stride=(1, 1), padding=(1, 1))\n  (upsample0): Upsample(size=32, mode='nearest')\n  (dec_conv0): Conv2d(64, 64, kernel_size=(3, 3), stride=(1, 1), padding=(1, 1))\n  (upsample1): Upsample(size=64, mode='nearest')\n  (dec_conv1): Conv2d(64, 64, kernel_size=(3, 3), stride=(1, 1), padding=(1, 1))\n  (upsample2): Upsample(size=128, mode='nearest')\n  (dec_conv2): Conv2d(64, 64, kernel_size=(3, 3), stride=(1, 1), padding=(1, 1))\n  (upsample3): Upsample(size=256, mode='nearest')\n  (dec_conv3): Conv2d(64, 1, kernel_size=(3, 3), stride=(1, 1), padding=(1, 1))\n)",
        "train_acc": [
            0.716168212890625,
            0.716168212890625
        ],
        "test_acc": [
            0.5087594985961914,
            0.5087594985961914
        ],
        "train_loss": [
            0.690319973230362,
            0.680258572101593
        ],
        "test_loss": [
            0.692782441775004,
…
        "train_specificity": [
            1.0,
            1.0
        ],
        "test_specificity": [
            1.0,
            1.0
        ],
        "epochs": 2,
        "optimizer_config": {
            "optimizer": "<class 'torch.optim.adam.Adam'>",
            "params": {
                "lr": 0.0001
            }
        },
        "criterion": "BCEWithLogitsLoss",
        "transform": "JointBaseTransform()"
    },
    {
        "model_name": "EncDecStride",
        "description": "EncDecStride",
        "timestamp": "2024-10-21 01:13:26.033867",
        "model": "EncDecStride(\n  (enc_conv0): Conv2d(3, 256, kernel_size=(3, 3), stride=(2, 2), padding=(1, 1))\n  (enc_conv1): Conv2d(256, 512, kernel_size=(3, 3), stride=(2, 2), padding=(1, 1))\n  (enc_conv2): Conv2d(512, 512, kernel_size=(3, 3), stride=(2, 2), padding=(1, 1))\n  (enc_conv3): Conv2d(512, 512, kernel_size=(3, 3), stride=(2, 2), padding=(1, 1))\n  (enc_conv4): Conv2d(512, 512, kernel_size=(3, 3), stride=(2, 2), padding=(1, 1))\n  (bottleneck_conv): Conv2d(512, 512, kernel_size=(3, 3), stride=(1, 1), padding=(1, 1))\n  (dec_conv0): ConvTranspose2d(512, 512, kernel_size=(3, 3), stride=(2, 2), padding=(1, 1), output_padding=(1, 1))\n  (dec_conv1): ConvTranspose2d(512, 512, kernel_size=(3, 3), stride=(2, 2), padding=(1, 1), output_padding=(1, 1))\n  (dec_conv2): ConvTranspose2d(512, 512, kernel_size=(3, 3), stride=(2, 2), padding=(1, 1), output_padding=(1, 1))\n  (dec_conv3): ConvTranspose2d(512, 256, kernel_size=(3, 3), stride=(2, 2), padding=(1, 1), output_padding=(1, 1))\n  (dec_conv4): ConvTranspose2d(256, 1, kernel_size=(3, 3), stride=(2, 2), padding=(1, 1), output_padding=(1, 1))\n)",
        "train_acc": [
            0.716168212890625,
            0.716168212890625,
            0.716168212890625,
            0.716168212890625,
            0.716168212890625,
            0.716168212890625,
            0.716168212890625,
            0.716168212890625,
            0.716168212890625,
            0.716168212890625
…
            1.0,
            1.0,
            1.0,
            1.0,
            1.0,
            1.0,
            1.0,
            1.0
        ],
        "epochs": 10,
        "optimizer_config": {
            "optimizer": "<class 'torch.optim.adam.Adam'>",
            "params": {
                "lr": 0.0001
            }
        },
        "criterion": "BCEWithLogitsLoss",
        "transform": "JointBaseTransform()"
    },
    {
        "model_name": "EncDecStride",
        "description": "EncDecStride",
        "timestamp": "2024-10-21 01:15:33.857739",
        "model": "EncDecStride(\n  (enc_conv0): Conv2d(3, 256, kernel_size=(3, 3), stride=(2, 2), padding=(1, 1))\n  (enc_conv1): Conv2d(256, 256, kernel_size=(3, 3), stride=(2, 2), padding=(1, 1))\n  (enc_conv2): Conv2d(256, 256, kernel_size=(3, 3), stride=(2, 2), padding=(1, 1))\n  (enc_conv3): Conv2d(256, 256, kernel_size=(3, 3), stride=(2, 2), padding=(1, 1))\n  (enc_conv4): Conv2d(256, 256, kernel_size=(3, 3), stride=(2, 2), padding=(1, 1))\n  (bottleneck_conv): Conv2d(256, 256, kernel_size=(3, 3), stride=(1, 1), padding=(1, 1))\n  (dec_conv0): ConvTranspose2d(256, 256, kernel_size=(3, 3), stride=(2, 2), padding=(1, 1), output_padding=(1, 1))\n  (dec_conv1): ConvTranspose2d(256, 256, kernel_size=(3, 3), stride=(2, 2), padding=(1, 1), output_padding=(1, 1))\n  (dec_conv2): ConvTranspose2d(256, 256, kernel_size=(3, 3), stride=(2, 2), padding=(1, 1), output_padding=(1, 1))\n  (dec_conv3): ConvTranspose2d(256, 256, kernel_size=(3, 3), stride=(2, 2), padding=(1, 1), output_padding=(1, 1))\n  (dec_conv4): ConvTranspose2d(256, 1, kernel_size=(3, 3), stride=(2, 2), padding=(1, 1), output_padding=(1, 1))\n)",
        "train_acc": [
            0.716168212890625,
            0.716168212890625,
            0.716168212890625,
            0.716168212890625,
            0.716168212890625,
            0.716168212890625,
            0.716168212890625,
            0.716168212890625,
            0.716168212890625,
            0.716168212890625
…
